…
vice(\"cuda\" if torch.cuda.is_available() else \"cpu\")\nmodel.to(device)","metadata":{"execution":{"iopub.status.busy":"2024-01-14T19:44:34.385904Z","iopub.execute_input":"2024-01-14T19:44:34.386190Z","iopub.status.idle":"2024-01-14T19:44:34.671220Z","shell.execute_reply.started":"2024-01-14T19:44:34.386167Z","shell.execute_reply":"2024-01-14T19:44:34.670286Z"},"trusted":true},"execution_count":22,"outputs":[{"execution_count":22,"output_type":"execute_result","data":{"text/plain":"BertForSequenceClassification(\n  (bert): BertModel(\n    (embeddings): BertEmbeddings(\n      (word_embeddings): Embedding(30522, 768, padding_idx=0)\n      (position_embeddings): Embedding(512, 768)\n      (token_type_embeddings): Embedding(2, 768)\n      (LayerNorm): LayerNorm((768,), eps=1e-12, elementwise_affine=True)\n      (dropout): Dropout(p=0.1, inplace=False)\n    )\n    (encoder): BertEncoder(\n      (layer): ModuleList(\n        (0-11): 12 x BertLayer(\n          (attention): BertAttention(\n            (self): BertSelfAttention(\n              (query): Linear(in_features=768, out_features=768, bias=True)\n              (key): Linear(in_features=768, out_features=768, bias=True)\n              (value): Linear(in_features=768, out_features=768, bias=True)\n              (dropout): Dropout(p=0.1, inplace=False)\n            )\n            (output): BertSelfOutput(\n              (dense): Linear(in_features=768, out_features=768, bias=True)\n              (LayerNorm): LayerNorm((768,), eps=1e-12, elementwise_affine=True)\n              (dropout): Dropout(p=0.1, inplace=False)\n            )\n          )\n          (intermediate): BertIntermediate(\n            (dense): Linear(in_features=768, out_features=3072, bias=True)\n            (intermediate_act_fn): GELUActivation()\n          )\n          (output): BertOutput(\n            (dense): Linear(in_features=3072, out_features=768, bias=True)\n            (LayerNorm): LayerNorm((768,), eps=1e-12, elementwise_affine=True)\n            (dropout): Dropout(p=0.1, inplace=False)\n          )\n        )\n      )\n    )\n    (pooler): BertPooler(\n      (dense): Linear(in_features=768, out_features=768, bias=True)\n      (activation): Tanh()\n    )\n  )\n  (dropout): Dropout(p=0.1, inplace=False)\n  (classifier): Linear(in_features=768, out_features=2, bias=True)\n)"},"metadata":{}}]},{"cell_type":"code","source":"# Define optimizer and learning rate scheduler\noptimizer = torch.optim.AdamW(model.parameters(), lr=2e-5)\nepochs = 5","metadata":{"execution":{"iopub.status.busy":"2024-01-14T19:44:34.672559Z","iopub.execute_input":"2024-01-14T19:44:34.673237Z","iopub.status.idle":"2024-01-14T19:44:34.678988Z","shell.
…
